name: "VGG_ILSVRC_19_layers"
input: "data"
input_dim: 1
input_dim: 3
input_dim: 128
input_dim: 128

layer {
  bottom: "data"
  top: "conv1_1"
  name: "conv1_1"
  type: "Convolution"
  convolution_param {
    num_output: 64
    pad: 1
    kernel_size: 3
  }
}
layer {
  bottom: "conv1_1"
  top: "conv1_1"
  name: "relu1_1"
  type: "ReLU"
}
layer {
  bottom: "conv1_1"
  top: "conv1_2"
  name: "conv1_2"
  type: "Convolution"
  convolution_param {
    num_output: 64
    pad: 1
    kernel_size: 3
  }
}
layer {
  bottom: "conv1_2"
  top: "conv1_2"
  name: "relu1_2"
  type: "ReLU"
}
layer {
  bottom: "conv1_2"
  top: "pool1"
  top: "pool1_mask"
  name: "pool1"
  type: "Pooling"
  pooling_param {
    pool: MAX
    kernel_size: 2
    stride: 2
  }
}
layer {
  bottom: "pool1"
  top: "conv2_1"
  name: "conv2_1"
  type: "Convolution"
  convolution_param {
    num_output: 128
    pad: 1
    kernel_size: 3
  }
}
layer {
  bottom: "conv2_1"
  top: "conv2_1"
  name: "relu2_1"
  type: "ReLU"
}
layer {
  bottom: "conv2_1"
  top: "conv2_2"
  name: "conv2_2"
  type: "Convolution"

  convolution_param {
    num_output: 128
    pad: 1
    kernel_size: 3
  }
}
layer {
  bottom: "conv2_2"
  top: "conv2_2"
  name: "relu2_2"
  type: "ReLU"
}
layer {
  bottom: "conv2_2"
  top: "pool2"
  top: "pool2_mask"
  name: "pool2"
  type: "Pooling"
  pooling_param {
    pool: MAX
    kernel_size: 2
    stride: 2
  }
}
layer {
  bottom: "pool2"
  top: "conv3_1"
  name: "conv3_1"
  type: "Convolution"
  convolution_param {
    num_output: 256
    pad: 1
    kernel_size: 3
  }
}
layer {
  bottom: "conv3_1"
  top: "conv3_1"
  name: "relu3_1"
  type: "ReLU"
}
layer {
  bottom: "conv3_1"
  top: "conv3_2"
  name: "conv3_2"
  type: "Convolution" 
  convolution_param {
    num_output: 256
    pad: 1
    kernel_size: 3
  }
}
layer {
  bottom: "conv3_2"
  top: "conv3_2"
  name: "relu3_2"
  type: "ReLU"
}
layer {
  bottom: "conv3_2"
  top: "conv3_3"
  name: "conv3_3"
  type: "Convolution"
  convolution_param {
    num_output: 256
    pad: 1
    kernel_size: 3
  }
}
layer {
  bottom: "conv3_3"
  top: "conv3_3"
  name: "relu3_3"
  type: "ReLU"
}
layer {
  bottom: "conv3_3"
  top: "conv3_4"
  name: "conv3_4"
  type: "Convolution"
  convolution_param {
    num_output: 256
    pad: 1
    kernel_size: 3
  }
}
layer {
  bottom: "conv3_4"
  top: "conv3_4"
  name: "relu3_4"
  type: "ReLU"
}
layer {
  bottom: "conv3_4"
  top: "pool3"
  top: "pool3_mask"
  name: "pool3"
  type: "Pooling"
  pooling_param {
    pool: MAX
    kernel_size: 2
    stride: 2
  }
}
layer {
  bottom: "pool3"
  top: "conv4_1"
  name: "conv4_1"
  type: "Convolution"
  convolution_param {
    num_output: 512
    pad: 1
    kernel_size: 3
  }
}
layer {
  bottom: "conv4_1"
  top: "conv4_1"
  name: "relu4_1"
  type: "ReLU"
}
layer {
  bottom: "conv4_1"
  top: "conv4_2"
  name: "conv4_2"
  type: "Convolution"
  convolution_param {
    num_output: 512
    pad: 1
    kernel_size: 3
  }
}
layer {
  bottom: "conv4_2"
  top: "conv4_2"
  name: "relu4_2"
  type: "ReLU"
}
layer {
  bottom: "conv4_2"
  top: "conv4_3"
  name: "conv4_3"
  type: "Convolution"
  convolution_param {
    num_output: 512
    pad: 1
    kernel_size: 3
  }
}
layer {
  bottom: "conv4_3"
  top: "conv4_3"
  name: "relu4_3"
  type: "ReLU"
}
layer {
  bottom: "conv4_3"
  top: "conv4_4"
  name: "conv4_4"
  type: "Convolution"
  convolution_param {
    num_output: 512
    pad: 1
    kernel_size: 3
  }
}
layer {
  bottom: "conv4_4"
  top: "conv4_4"
  name: "relu4_4"
  type: "ReLU"
}
layer {
  bottom: "conv4_4"
  top: "pool4"
  top: "pool4_mask"
  name: "pool4"
  type: "Pooling"
  pooling_param {
    pool: MAX
    kernel_size: 2
    stride: 2
  }
}
layer {
  bottom: "pool4"
  top: "conv5_1"
  name: "conv5_1"
  type: "Convolution"
  convolution_param {
    num_output: 512
    pad: 1
    kernel_size: 3
  }
}
layer {
  bottom: "conv5_1"
  top: "conv5_1"
  name: "relu5_1"
  type: "ReLU"
}
layer {
  bottom: "conv5_1"
  top: "conv5_2"
  name: "conv5_2"
  type: "Convolution"
  convolution_param {
    num_output: 512
    pad: 1
    kernel_size: 3
  }
}
layer {
  bottom: "conv5_2"
  top: "conv5_2"
  name: "relu5_2"
  type: "ReLU"
}
layer {
  bottom: "conv5_2"
  top: "conv5_3"
  name: "conv5_3"
  type: "Convolution"
  convolution_param {
    num_output: 512
    pad: 1
    kernel_size: 3
  }
}
layer {
  bottom: "conv5_3"
  top: "conv5_3"
  name: "relu5_3"
  type: "ReLU"
}
layer {
  bottom: "conv5_3"
  top: "conv5_4"
  name: "conv5_4"
  type: "Convolution"
  convolution_param {
    num_output: 512
    pad: 1
    kernel_size: 3
  }
}
layer {
  bottom: "conv5_4"
  top: "conv5_4"
  name: "relu5_4"
  type: "ReLU"
}
layer {
  bottom: "conv5_4"
  top: "pool5"
  top: "pool5_mask"
  name: "pool5"
  type: "Pooling"
  pooling_param {
    pool: MAX
    kernel_size: 2
    stride: 2
  }
}
##
layer {
  name: "upsample5"
  type: "Upsample"
  bottom: "pool5"
  bottom: "pool5_mask"
  top: "upsample5"
  upsample_param {
    scale: 2
  }
}
layer {
  name: "conv_decode5"
  type: "Convolution"
  bottom: "upsample5"
  top: "conv_decode5"
  param {
    lr_mult: 1
  }
  param {
    lr_mult: 2
  }
  convolution_param {
    num_output: 512
    kernel_size: 3
    pad: 1
    weight_filler {
      type: "msra"
      variance_norm: AVERAGE
    }
    bias_filler {
      type: "constant"
      value: 0
}
}
}
layer {
  bottom: "conv_decode5"
  top: "relu_conv_decode5"
  name: "relu_conv_decode5"
  type: "ReLU"
}
layer {
  bottom: "relu_conv_decode5"
  top: "drop_conv_decode5"
  name: "drop_conv_decode5"
  type: "Dropout"
  dropout_param {
    dropout_ratio: 0.5
  }
}
##
layer {
  name: "upsample4"
  type: "Upsample"
  bottom: "drop_conv_decode5"
  bottom: "pool4_mask"
  top: "upsample4"
  upsample_param {
    scale: 2
  }
}
layer {
  name: "conv_decode4"
  type: "Convolution"
  bottom: "upsample4"
  top: "conv_decode4"
  param {
    lr_mult: 1
  }
  param {
    lr_mult: 2
  }
  convolution_param {
    num_output: 256
    kernel_size: 3
    pad: 1
    weight_filler {
      type: "msra"
      variance_norm: AVERAGE
    }
    bias_filler {
      type: "constant"
      value: 0
}
}
}
layer {
  bottom: "conv_decode4"
  top: "relu_conv_decode4"
  name: "relu_conv_decode4"
  type: "ReLU"
}
layer {
  bottom: "relu_conv_decode4"
  top: "drop_conv_decode4"
  name: "drop_conv_decode4"
  type: "Dropout"
  dropout_param {
    dropout_ratio: 0.5
  }
}
##
layer {
  name: "upsample3"
  type: "Upsample"
  bottom: "drop_conv_decode4"
  bottom: "pool3_mask"
  top: "upsample3"
  upsample_param {
    scale: 2
  }
}
layer {
  name: "conv_decode3"
  type: "Convolution"
  bottom: "upsample3"
  top: "conv_decode3"
  param {
    lr_mult: 1
  }
  param {
    lr_mult: 2
  }
  convolution_param {
    num_output: 128
    kernel_size: 3
    pad: 1
    weight_filler {
      type: "msra"
      variance_norm: AVERAGE
    }
    bias_filler {
      type: "constant"
      value: 0
}
}
}
layer {
  bottom: "conv_decode3"
  top: "relu_conv_decode3"
  name: "relu_conv_decode3"
  type: "ReLU"
}
layer {
  bottom: "relu_conv_decode3"
  top: "drop_conv_decode3"
  name: "drop_conv_decode3"
  type: "Dropout"
  dropout_param {
    dropout_ratio: 0.5
  }
}
##
layer {
  name: "upsample2"
  type: "Upsample"
  bottom: "drop_conv_decode3"
  bottom: "pool2_mask"
  top: "upsample2"
  upsample_param {
    scale: 2
  }
}
layer {
  name: "conv_decode2"
  type: "Convolution"
  bottom: "upsample2"
  top: "conv_decode2"
  param {
    lr_mult: 1
  }
  param {
    lr_mult: 2
  }
  convolution_param {
    num_output: 64
    kernel_size: 3
    pad: 1
    weight_filler {
      type: "msra"
      variance_norm: AVERAGE
    }
    bias_filler {
      type: "constant"
      value: 0
}
}
}
layer {
  bottom: "conv_decode2"
  top: "relu_conv_decode2"
  name: "relu_conv_decode2"
  type: "ReLU"
}
layer {
  bottom: "relu_conv_decode2"
  top: "drop_conv_decode2"
  name: "drop_conv_decode2"
  type: "Dropout"
  dropout_param {
    dropout_ratio: 0.5
  }
}
##
layer {
  name: "upsample1"
  type: "Upsample"
  bottom: "drop_conv_decode2"
  bottom: "pool1_mask"
  top: "upsample1"
  upsample_param {
    scale: 2
  }
}
layer {
  name: "conv_decode1"
  type: "Convolution"
  bottom: "upsample1"
  top: "conv_decode1"
  param {
    lr_mult: 1
  }
  param {
    lr_mult: 2
  }
  convolution_param {
    num_output: 32
    kernel_size: 3
    pad: 1
    weight_filler {
      type: "msra"
      variance_norm: AVERAGE
    }
    bias_filler {
      type: "constant"
      value: 0
}
}
}
layer {
  bottom: "conv_decode1"
  top: "relu_conv_decode1"
  name: "relu_conv_decode1"
  type: "ReLU"
}
layer {
  bottom: "relu_conv_decode1"
  top: "drop_conv_decode1"
  name: "drop_conv_decode1"
  type: "Dropout"
  dropout_param {
    dropout_ratio: 0.5
  }
}
layer {
  name: "conv_decode0"
  type: "Convolution"
  bottom: "drop_conv_decode1"
  top: "conv_decode0"
  loss_weight: 1.0
  param {
    lr_mult: 1
  }
  param {
    lr_mult: 2
  }
  convolution_param {
    num_output: 11
    kernel_size: 3
    pad: 1
    weight_filler {
      type: "msra"
      variance_norm: AVERAGE
    }
    bias_filler {
      type: "constant"
      value: 0
}
}
}
