name: "VGG_ILSVRC_19_layers"
input: "data_input"
input_dim: 8
input_dim: 6
input_dim: 224
input_dim: 224

###################
layer {
  name: "slice_data"
  type: "Slice"
  bottom: "data_input"
  top: "data_mask"
  top: "data"
  slice_param {
     axis: 1
     slice_point: 3
  }
}
###
layer {
  bottom: "data_mask"
  top: "conv1_1_mask"
  name: "conv1_1_mask"
  type: "Convolution"
  param { 
    name: "conv1_1_yijun"
    lr_mult: 0
    decay_mult: 0
  }
  param { 
    lr_mult: 0 
    decay_mult: 0
  }
  convolution_param {
    num_output: 64
    pad: 1
    kernel_size: 3
  }
}
layer {
  bottom: "conv1_1_mask"
  top: "conv1_1_mask"
  name: "relu1_1_mask"
  type: "ReLU"
}
layer {
  bottom: "conv1_1_mask"
  top: "conv1_2_mask"
  name: "conv1_2_mask"
  type: "Convolution"
  param { 
    name: "conv1_2_yijun"
    lr_mult: 0
    decay_mult: 0
  }
  param { 
    lr_mult: 0 
    decay_mult: 0
  }
  convolution_param {
    num_output: 64
    pad: 1
    kernel_size: 3
  }
}
layer {
  bottom: "conv1_2_mask"
  top: "conv1_2_mask"
  name: "relu1_2_mask"
  type: "ReLU"
}
layer {
  bottom: "conv1_2_mask"
  top: "pool1_mask_mask"
  name: "pool1_mask_mask"
  type: "Pooling"
  pooling_param {
    pool: MAX
    kernel_size: 2
    stride: 2
  }
}

layer {
  bottom: "pool1_mask"
  top: "conv2_1_mask"
  name: "conv2_1_mask"
  type: "Convolution"
  param { 
    name: "conv2_1_yijun"
    lr_mult: 0
    decay_mult: 0
  }
  param { 
    lr_mult: 0 
    decay_mult: 0
  }
  convolution_param {
    num_output: 128
    pad: 1
    kernel_size: 3
  }
}
layer {
  bottom: "conv2_1_mask"
  top: "conv2_1_mask"
  name: "relu2_1_mask"
  type: "ReLU"
}
layer {
  bottom: "conv2_1_mask"
  top: "conv2_2_mask"
  name: "conv2_2_mask"
  type: "Convolution"
  param { 
    name: "conv2_2_yijun"
    lr_mult: 0
    decay_mult: 0
  }
  param { 
    lr_mult: 0 
    decay_mult: 0
  }
  convolution_param {
    num_output: 128
    pad: 1
    kernel_size: 3
  }
}
layer {
  bottom: "conv2_2_mask"
  top: "conv2_2_mask"
  name: "relu2_2_mask"
  type: "ReLU"
}
layer {
  bottom: "conv2_2_mask"
  top: "pool2_mask_mask"
  name: "pool2_mask_mask"
  type: "Pooling"
  pooling_param {
    pool: MAX
    kernel_size: 2
    stride: 2
  }
}

layer {
  bottom: "pool2_mask"
  top: "conv3_1_mask"
  name: "conv3_1_mask"
  type: "Convolution"
  param { 
    name: "conv3_1_yijun"
    lr_mult: 0
    decay_mult: 0
  }
  param { 
    lr_mult: 0 
    decay_mult: 0
  }
  convolution_param {
    num_output: 256
    pad: 1
    kernel_size: 3
  }
}
layer {
  bottom: "conv3_1_mask"
  top: "conv3_1_mask"
  name: "relu3_1_mask"
  type: "ReLU"
}
layer {
  bottom: "conv3_1_mask"
  top: "conv3_2_mask"
  name: "conv3_2_mask"
  type: "Convolution" 
  param { 
    name: "conv3_2_yijun"
    lr_mult: 0
    decay_mult: 0
  }
  param { 
    lr_mult: 0 
    decay_mult: 0
  }
  convolution_param {
    num_output: 256
    pad: 1
    kernel_size: 3
  }
}
layer {
  bottom: "conv3_2_mask"
  top: "conv3_2_mask"
  name: "relu3_2_mask"
  type: "ReLU"
}
layer {
  bottom: "conv3_2_mask"
  top: "conv3_3_mask"
  name: "conv3_3_mask"
  type: "Convolution"
  param { 
    name: "conv3_3_yijun"
    lr_mult: 0
    decay_mult: 0
  }
  param { 
    lr_mult: 0 
    decay_mult: 0
  }
  convolution_param {
    num_output: 256
    pad: 1
    kernel_size: 3
  }
}
layer {
  bottom: "conv3_3_mask"
  top: "conv3_3_mask"
  name: "relu3_3_mask"
  type: "ReLU"
}
layer {
  bottom: "conv3_3_mask"
  top: "conv3_4_mask"
  name: "conv3_4_mask"
  type: "Convolution"
  param { 
    name: "conv3_4_yijun"
    lr_mult: 0
    decay_mult: 0
  }
  param { 
    lr_mult: 0 
    decay_mult: 0
  }
  convolution_param {
    num_output: 256
    pad: 1
    kernel_size: 3
  }
}
layer {
  bottom: "conv3_4_mask"
  top: "conv3_4_mask"
  name: "relu3_4_mask"
  type: "ReLU"
}
layer {
  bottom: "conv3_4_mask"
  top: "pool3_mask_mask"
  name: "pool3_mask_mask"
  type: "Pooling"
  pooling_param {
    pool: MAX
    kernel_size: 2
    stride: 2
  }
}

###
layer {
  bottom: "data"
  top: "conv1_1"
  name: "conv1_1"
  type: "Convolution"
  param { 
    name: "conv1_1_yijun"
    lr_mult: 0
    decay_mult: 0
  }
  param { 
    lr_mult: 0 
    decay_mult: 0
  }
  convolution_param {
    num_output: 64
    pad: 1
    kernel_size: 3
  }
}
layer {
  bottom: "conv1_1"
  top: "conv1_1"
  name: "relu1_1"
  type: "ReLU"
}
layer {
  bottom: "conv1_1"
  top: "conv1_2"
  name: "conv1_2"
  type: "Convolution"
  param { 
    name: "conv1_2_yijun"
    lr_mult: 0
    decay_mult: 0
  }
  param { 
    lr_mult: 0 
    decay_mult: 0
  }
  convolution_param {
    num_output: 64
    pad: 1
    kernel_size: 3
  }
}
layer {
  bottom: "conv1_2"
  top: "pool1"
  top: "pool1_mask"
  name: "pool1"
  type: "Pooling"
  pooling_param {
    pool: MAX
    kernel_size: 2
    stride: 2
  }
}
layer {
  name: "pool1_sum"
  type: "Eltwise"
  bottom: "pool1"
  bottom: "pool1_mask_mask"
  top: "pool1_sum"
  eltwise_param {
     operation: SUM
  }
}
layer {
  bottom: "pool1_sum"
  top: "conv2_1"
  name: "conv2_1"
  type: "Convolution"
  param { 
    name: "conv2_1_yijun"
    lr_mult: 0
    decay_mult: 0
  }
  param { 
    lr_mult: 0 
    decay_mult: 0
  }
  convolution_param {
    num_output: 128
    pad: 1
    kernel_size: 3
  }
}
layer {
  bottom: "conv2_1"
  top: "conv2_1"
  name: "relu2_1"
  type: "ReLU"
}
layer {
  bottom: "conv2_1"
  top: "conv2_2"
  name: "conv2_2"
  type: "Convolution"
  param { 
    name: "conv2_2_yijun"
    lr_mult: 0
    decay_mult: 0
  }
  param { 
    lr_mult: 0 
    decay_mult: 0
  }
  convolution_param {
    num_output: 128
    pad: 1
    kernel_size: 3
  }
}
layer {
  bottom: "conv2_2"
  top: "conv2_2"
  name: "relu2_2"
  type: "ReLU"
}
layer {
  bottom: "conv2_2"
  top: "pool2"
  top: "pool2_mask"
  name: "pool2"
  type: "Pooling"
  pooling_param {
    pool: MAX
    kernel_size: 2
    stride: 2
  }
}
layer {
  name: "pool2_sum"
  type: "Eltwise"
  bottom: "pool2"
  bottom: "pool2_mask_mask"
  top: "pool2_sum"
  eltwise_param {
     operation: SUM
  }
}
layer {
  bottom: "pool2_sum"
  top: "conv3_1"
  name: "conv3_1"
  type: "Convolution"
  param { 
    name: "conv3_1_yijun"
    lr_mult: 0
    decay_mult: 0
  }
  param { 
    lr_mult: 0 
    decay_mult: 0
  }
  convolution_param {
    num_output: 256
    pad: 1
    kernel_size: 3
  }
}
layer {
  bottom: "conv3_1"
  top: "conv3_1"
  name: "relu3_1"
  type: "ReLU"
}
layer {
  bottom: "conv3_1"
  top: "conv3_2"
  name: "conv3_2"
  type: "Convolution" 
  param { 
    name: "conv3_2_yijun"
    lr_mult: 0
    decay_mult: 0
  }
  param { 
    lr_mult: 0 
    decay_mult: 0
  }
  convolution_param {
    num_output: 256
    pad: 1
    kernel_size: 3
  }
}
layer {
  bottom: "conv3_2"
  top: "conv3_2"
  name: "relu3_2"
  type: "ReLU"
}
layer {
  bottom: "conv3_2"
  top: "conv3_3"
  name: "conv3_3"
  type: "Convolution"
  param { 
    name: "conv3_3_yijun"
    lr_mult: 0
    decay_mult: 0
  }
  param { 
    lr_mult: 0 
    decay_mult: 0
  }
  convolution_param {
    num_output: 256
    pad: 1
    kernel_size: 3
  }
}
layer {
  bottom: "conv3_3"
  top: "conv3_3"
  name: "relu3_3"
  type: "ReLU"
}
layer {
  bottom: "conv3_3"
  top: "conv3_4"
  name: "conv3_4"
  type: "Convolution"
  param { 
    name: "conv3_4_yijun"
    lr_mult: 0
    decay_mult: 0
  }
  param { 
    lr_mult: 0 
    decay_mult: 0
  }
  convolution_param {
    num_output: 256
    pad: 1
    kernel_size: 3
  }
}
layer {
  bottom: "conv3_4"
  top: "conv3_4"
  name: "relu3_4"
  type: "ReLU"
}
layer {
  bottom: "conv3_4"
  top: "pool3"
  top: "pool3_mask"
  name: "pool3"
  type: "Pooling"
  pooling_param {
    pool: MAX
    kernel_size: 2
    stride: 2
  }
}
layer {
  name: "pool13_sum"
  type: "Eltwise"
  bottom: "pool3"
  bottom: "pool3_mask_mask"
  top: "pool3_sum"
  eltwise_param {
     operation: SUM
  }
}
##
layer {
  name: "upsample3"
  type: "Upsample"
  bottom: "pool3_sum"
  bottom: "pool3_mask"
  top: "upsample3"
  upsample_param {
    scale: 2
  }
}
layer {
  name: "conv_decode3_4"
  type: "Convolution"
  bottom: "upsample3"
  top: "conv_decode3_4"
  convolution_param {
    num_output: 64
    kernel_size: 3
    pad: 1
    weight_filler {
      type: "gaussian"
      std: 0.001
      #type: "msra"
      #variance_norm: AVERAGE
    }
    bias_filler {
      type: "constant"
      value: 0
}
}
}
layer {
  bottom: "conv_decode3_4"
  top: "conv_decode3_4"
  name: "de_relu3_4"
  type: "ReLU"
}
layer {
  name: "conv_decode3_3"
  type: "Convolution"
  bottom: "conv_decode3_4"
  top: "conv_decode3_3"
  convolution_param {
    num_output: 64
    kernel_size: 3
    pad: 1
    weight_filler {
      type: "gaussian"
      std: 0.001
      #type: "msra"
      #variance_norm: AVERAGE
    }
    bias_filler {
      type: "constant"
      value: 0
}
}
}
layer {
  bottom: "conv_decode3_3"
  top: "conv_decode3_3"
  name: "de_relu3_3"
  type: "ReLU"
}
layer {
  name: "conv_decode3_2"
  type: "Convolution"
  bottom: "conv_decode3_3"
  top: "conv_decode3_2"
  convolution_param {
    num_output: 64
    kernel_size: 3
    pad: 1
    weight_filler {
      type: "gaussian"
      std: 0.001
      #type: "msra"
      #variance_norm: AVERAGE
    }
    bias_filler {
      type: "constant"
      value: 0
}
}
}
layer {
  bottom: "conv_decode3_2"
  top: "conv_decode3_2"
  name: "de_relu3_2"
  type: "ReLU"
}
layer {
  name: "conv_decode3_1"
  type: "Convolution"
  bottom: "conv_decode3_2"
  top: "conv_decode3_1"
  convolution_param {
    num_output: 128
    kernel_size: 3
    pad: 1
    weight_filler {
      type: "gaussian"
      std: 0.001
      #type: "msra"
      #variance_norm: AVERAGE
    }
    bias_filler {
      type: "constant"
      value: 0
}
}
}
layer {
  bottom: "conv_decode3_1"
  top: "conv_decode3_1"
  name: "de_relu3_1"
  type: "ReLU"
}
##
layer {
  name: "upsample2"
  type: "Upsample"
  bottom: "conv_decode3_1"
  bottom: "pool2_mask"
  top: "upsample2"
  upsample_param {
    scale: 2
  }
}
layer {
  name: "conv_decode2_2"
  type: "Convolution"
  bottom: "upsample2"
  top: "conv_decode2_2"
  convolution_param {
    num_output: 64
    kernel_size: 3
    pad: 1
    weight_filler {
      type: "gaussian"
      std: 0.001
      #type: "msra"
      #variance_norm: AVERAGE
    }
    bias_filler {
      type: "constant"
      value: 0
}
}
}
layer {
  bottom: "conv_decode2_2"
  top: "conv_decode2_2"
  name: "de_relu2_2"
  type: "ReLU"
}
layer {
  name: "conv_decode2_1"
  type: "Convolution"
  bottom: "conv_decode2_2"
  top: "conv_decode2_1"
  convolution_param {
    num_output: 64
    kernel_size: 3
    pad: 1
    weight_filler {
      type: "gaussian"
      std: 0.001
      #type: "msra"
      #variance_norm: AVERAGE
    }
    bias_filler {
      type: "constant"
      value: 0
}
}
}
layer {
  bottom: "conv_decode2_1"
  top: "conv_decode2_1"
  name: "de_relu2_1"
  type: "ReLU"
}

##
layer {
  name: "upsample1"
  type: "Upsample"
  bottom: "conv_decode2_1"
  bottom: "pool1_mask"
  top: "upsample1"
  upsample_param {
    scale: 2
  }
}

layer {
  name: "conv_decode1_2"
  type: "Convolution"
  bottom: "upsample1"
  top: "conv_decode1_2"
  convolution_param {
    num_output: 64
    kernel_size: 3
    pad: 1
    weight_filler {
      type: "gaussian"
      std: 0.001
      #type: "msra"
      #variance_norm: AVERAGE
    }
    bias_filler {
      type: "constant"
      value: 0
}
}
}

layer {
  bottom: "conv_decode1_2"
  top: "conv_decode1_2"
  name: "de_relu1_2"
  type: "ReLU"
}

layer {
  name: "conv_decode1_1"
  type: "Convolution"
  bottom: "conv_decode1_2"
  top: "conv_decode1_1"
  convolution_param {
    num_output: 64
    kernel_size: 3
    pad: 1
    weight_filler {
      type: "gaussian"
      std: 0.001
      #type: "msra"
      #variance_norm: AVERAGE
    }
    bias_filler {
      type: "constant"
      value: 0
}
}
}

layer {
  bottom: "conv_decode1_1"
  top: "conv_decode1_1"
  name: "de_relu1_1"
  type: "ReLU"
}

layer {
  name: "reconstruction"
  type: "Convolution"
  bottom: "conv_decode1_1"
  top: "reconstruction"
  loss_weight: 1.0
  convolution_param {
    num_output: 3
    kernel_size: 3
    pad: 1
    weight_filler {
      type: "gaussian"
      std: 0.001
      #type: "msra"
      #variance_norm: AVERAGE
    }
    bias_filler {
      type: "constant"
      value: 0
}
}
}




